nc: 10

scales:
  s: [0.33, 0.5, 1024]

backbone:
  - [-1, 1, Conv, [64, 3, 2]]
  - [-1, 1, Conv, [128, 3, 2]]
  - [-1, 3, TDC_C2f, [128]]
  - [-1, 1, Conv, [256, 3, 2]]
  - [-1, 6, TDC_C2f, [256]]
  - [-1, 1, Conv, [512, 3, 2]]
  - [-1, 6, TDC_C2f, [512]]
  - [-1, 1, PLKF, [512, 5]]

head:
  - [[-1, -2], 1, TD, ['p4']]
  - [-1, 3, C2f, [512]]

  - [-1, 1, nn.Upsample, [None, 2, "nearest"]]
  - [[-1, 4], 1, TD, ['p3']]
  - [-1, 3, C2f, [256]]

  - [-1, 1, nn.Upsample, [None, 2, "nearest"]]
  - [[-1, 2], 1, TD, ['p2']]
  - [-1, 3, C2f, [128]]

  - [-1, 1, Conv, [256, 3, 2]]
  - [[-1, 12], 1, BU, [2]]
  - [-1, 3, C2f, [256]]

  - [-1, 1, Conv, [512, 3, 2]]
  - [[-1, 9], 1, BU, [4, 5, 'avg_pool', 0.2]]
  - [-1, 3, C2f, [512]]

  - [[15, 18, 21], 1, AMSFHead, [nc]]
